…
2023-12-04 15:12:15,322 INFO: Dataset [PairedImageDataset] - DIV2K is built.
2023-12-04 15:12:15,322 INFO: Training statistics:
	Number of train images: 32592
	Dataset enlarge ratio: 10
	Batch size per gpu: 64
	World size (gpu number): 1
	Require iter number per epoch: 5093
	Total epochs: 197; iters: 1000000.
2023-12-04 15:12:15,322 INFO: Dataset [PairedImageDataset] - Set5 is built.
2023-12-04 15:12:15,322 INFO: Number of val images/folders in Set5: 5
2023-12-04 15:12:15,358 INFO: Network [SMFANet] is created.
2023-12-04 15:12:15,548 INFO: Network: SMFANet, with parameters: 197,328
2023-12-04 15:12:15,549 INFO: SMFANet(
  (to_feat): Conv2d(3, 36, kernel_size=(3, 3), stride=(1, 1), padding=(1, 1))
  (feats): Sequential(
    (0): FMB(
      (smfa): SMFA(
        (linear_0): Conv2d(36, 72, kernel_size=(1, 1), stride=(1, 1))
        (linear_1): Conv2d(36, 36, kernel_size=(1, 1), stride=(1, 1))
        (linear_2): Conv2d(36, 36, kernel_size=(1, 1), stride=(1, 1))
        (lde): DMlp(
          (conv_0): Sequential(
            (0): Conv2d(36, 72, kernel_size=(3, 3), stride=(1, 1), padding=(1, 1), groups=36)
            (1): Conv2d(72, 72, kernel_size=(1, 1), stride=(1, 1))
          )
          (act): GELU(approximate='none')
          (conv_1): Conv2d(72, 36, kernel_size=(1, 1), stride=(1, 1))
        )
        (dw_conv): Conv2d(36, 36, kernel_size=(3, 3), stride=(1, 1), padding=(1, 1), groups=36)
        (gelu): GELU(approximate='none')
      )
      (pcfn): PCFN(
        (conv_0): Conv2d(36, 72, kernel_size=(1, 1), stride=(1, 1))
        (conv_1): Conv2d(18, 18, kernel_size=(3, 3), stride=(1, 1), padding=(1, 1))
        (act): GELU(approximate='none')
        (conv_2): Conv2d(72, 36, kernel_size=(1, 1), stride=(1, 1))
      )
    )
    (1): FMB(
      (smfa): SMFA(
        (linear_0): Conv2d(36, 72, kernel_size=(1, 1), stride=(1, 1))
        (linear_1): Conv2d(36, 36, kernel_size=(1, 1), stride=(1, 1))
        (linear_2): Conv2d(36, 36, kernel_size=(1, 1), stride=(1, 1))
        (lde): DMlp(
          (conv_0): Sequential(
            (0): Conv2d(36, 72, kernel_size=(3, 3), stride=(1, 1), padding=(1, 1), groups=36)
            (1): Conv2d(72, 72, kernel_size=(1, 1), stride=(1, 1))
          )
          (act): GELU(approximate='none')
          (conv_1): Conv2d(72, 36, kernel_size=(1, 1), stride=(1, 1))
        )
        (dw_conv): Conv2d(36, 36, kernel_size=(3, 3), stride=(1, 1), padding=(1, 1), groups=36)
        (gelu): GELU(approximate='none')
      )
      (pcfn): PCFN(
        (conv_0): Conv2d(36, 72, kernel_size=(1, 1), stride=(1, 1))
        (conv_1): Conv2d(18, 18, kernel_size=(3, 3), stride=(1, 1), padding=(1, 1))
        (act): GELU(approximate='none')
        (conv_2): Conv2d(72, 36, kernel_size=(1, 1), stride=(1, 1))
      )
    )
    (2): FMB(
      (smfa): SMFA(
        (linear_0): Conv2d(36, 72, kernel_size=(1, 1), stride=(1, 1))
        (linear_1): Conv2d(36, 36, kernel_size=(1, 1), stride=(1, 1))
        (linear_2): Conv2d(36, 36, kernel_size=(1, 1), stride=(1, 1))
        (lde): DMlp(
          (conv_0): Sequential(
            (0): Conv2d(36, 72, kernel_size=(3, 3), stride=(1, 1), padding=(1, 1), groups=36)
            (1): Conv2d(72, 72, kernel_size=(1, 1), stride=(1, 1))
          )
          (act): GELU(approximate='none')
          (conv_1): Conv2d(72, 36, kernel_size=(1, 1), stride=(1, 1))
        )
        (dw_conv): Conv2d(36, 36, kernel_size=(3, 3), stride=(1, 1), padding=(1, 1), groups=36)
        (gelu): GELU(approximate='none')
      )
      (pcfn): PCFN(
        (conv_0): Conv2d(36, 72, kernel_size=(1, 1), stride=(1, 1))
        (conv_1): Conv2d(18, 18, kernel_size=(3, 3), stride=(1, 1), padding=(1, 1))
        (act): GELU(approximate='none')
        (conv_2): Conv2d(72, 36, kernel_size=(1, 1), stride=(1, 1))
      )
    )
    (3): FMB(
      (smfa): SMFA(
        (linear_0): Conv2d(36, 72, kernel_size=(1, 1), stride=(1, 1))
        (linear_1): Conv2d(36, 36, kernel_size=(1, 1), stride=(1, 1))
        (linear_2): Conv2d(36, 36, kernel_size=(1, 1), stride=(1, 1))
        (lde): DMlp(
          (conv_0): Sequential(
            (0): Conv2d(36, 72, kernel_size=(3, 3), stride=(1, 1), padding=(1, 1), groups=36)
            (1): Conv2d(72, 72, kernel_size=(1, 1), stride=(1, 1))
          )
          (act): GELU(approximate='none')
          (conv_1): Conv2d(72, 36, kernel_size=(1, 1), stride=(1, 1))
        )
        (dw_conv): Conv2d(36, 36, kernel_size=(3, 3), stride=(1, 1), padding=(1, 1), groups=36)
        (gelu): GELU(approximate='none')
      )
      (pcfn): PCFN(
        (conv_0): Conv2d(36, 72, kernel_size=(1, 1), stride=(1, 1))
        (conv_1): Conv2d(18, 18, kernel_size=(3, 3), stride=(1, 1), padding=(1, 1))
        (act): GELU(approximate='none')
        (conv_2): Conv2d(72, 36, kernel_size=(1, 1), stride=(1, 1))
      )
    )
    (4): FMB(
      (smfa): SMFA(
        (linear_0): Conv2d(36, 72, kernel_size=(1, 1), stride=(1, 1))
        (linear_1): Conv2d(36, 36, kernel_size=(1, 1), stride=(1, 1))
        (linear_2): Conv2d(36, 36, kernel_size=(1, 1), stride=(1, 1))
        (lde): DMlp(
          (conv_0): Sequential(
            (0): Conv2d(36, 72, kernel_size=(3, 3), stride=(1, 1), padding=(1, 1), groups=36)
            (1): Conv2d(72, 72, kernel_size=(1, 1), stride=(1, 1))
          )
          (act): GELU(approximate='none')
          (conv_1): Conv2d(72, 36, kernel_size=(1, 1), stride=(1, 1))
        )
        (dw_conv): Conv2d(36, 36, kernel_size=(3, 3), stride=(1, 1), padding=(1, 1), groups=36)
        (gelu): GELU(approximate='none')
      )
      (pcfn): PCFN(
        (conv_0): Conv2d(36, 72, kernel_size=(1, 1), stride=(1, 1))
        (conv_1): Conv2d(18, 18, kernel_size=(3, 3), stride=(1, 1), padding=(1, 1))
        (act): GELU(approximate='none')
        (conv_2): Conv2d(72, 36, kernel_size=(1, 1), stride=(1, 1))
      )
    )
    (5): FMB(
      (smfa): SMFA(
        (linear_0): Conv2d(36, 72, kernel_size=(1, 1), stride=(1, 1))
        (linear_1): Conv2d(36, 36, kernel_size=(1, 1), stride=(1, 1))
        (linear_2): Conv2d(36, 36, kernel_size=(1, 1), stride=(1, 1))
        (lde): DMlp(
          (conv_0): Sequential(
            (0): Conv2d(36, 72, kernel_size=(3, 3), stride=(1, 1), padding=(1, 1), groups=36)
            (1): Conv2d(72, 72, kernel_size=(1, 1), stride=(1, 1))
          )
          (act): GELU(approximate='none')
          (conv_1): Conv2d(72, 36, kernel_size=(1, 1), stride=(1, 1))
        )
        (dw_conv): Conv2d(36, 36, kernel_size=(3, 3), stride=(1, 1), padding=(1, 1), groups=36)
        (gelu): GELU(approximate='none')
      )
      (pcfn): PCFN(
        (conv_0): Conv2d(36, 72, kernel_size=(1, 1), stride=(1, 1))
        (conv_1): Conv2d(18, 18, kernel_size=(3, 3), stride=(1, 1), padding=(1, 1))
        (act): GELU(approximate='none')
        (conv_2): Conv2d(72, 36, kernel_size=(1, 1), stride=(1, 1))
      )
    )
    (6): FMB(
      (smfa): SMFA(
        (linear_0): Conv2d(36, 72, kernel_size=(1, 1), stride=(1, 1))
        (linear_1): Conv2d(36, 36, kernel_size=(1, 1), stride=(1, 1))
        (linear_2): Conv2d(36, 36, kernel_size=(1, 1), stride=(1, 1))
        (lde): DMlp(
          (conv_0): Sequential(
            (0): Conv2d(36, 72, kernel_size=(3, 3), stride=(1, 1), padding=(1, 1), groups=36)
            (1): Conv2d(72, 72, kernel_size=(1, 1), stride=(1, 1))
          )
          (act): GELU(approximate='none')
          (conv_1): Conv2d(72, 36, kernel_size=(1, 1), stride=(1, 1))
        )
        (dw_conv): Conv2d(36, 36, kernel_size=(3, 3), stride=(1, 1), padding=(1, 1), groups=36)
        (gelu): GELU(approximate='none')
      )
      (pcfn): PCFN(
        (conv_0): Conv2d(36, 72, kernel_size=(1, 1), stride=(1, 1))
        (conv_1): Conv2d(18, 18, kernel_size=(3, 3), stride=(1, 1), padding=(1, 1))
        (act): GELU(approximate='none')
        (conv_2): Conv2d(72, 36, kernel_size=(1, 1), stride=(1, 1))
      )
    )
    (7): FMB(
      (smfa): SMFA(
        (linear_0): Conv2d(36, 72, kernel_size=(1, 1), stride=(1, 1))
        (linear_1): Conv2d(36, 36, kernel_size=(1, 1), stride=(1, 1))
        (linear_2): Conv2d(36, 36, kernel_size=(1, 1), stride=(1, 1))
        (lde): DMlp(
          (conv_0): Sequential(
            (0): Conv2d(36, 72, kernel_size=(3, 3), stride=(1, 1), padding=(1, 1), groups=36)
            (1): Conv2d(72, 72, kernel_size=(1, 1), stride=(1, 1))
          )
          (act): GELU(approximate='none')
          (conv_1): Conv2d(72, 36, kernel_size=(1, 1), stride=(1, 1))
        )
        (dw_conv): Conv2d(36, 36, kernel_size=(3, 3), stride=(1, 1), padding=(1, 1), groups=36)
        (gelu): GELU(approximate='none')
      )
      (pcfn): PCFN(
        (conv_0): Conv2d(36, 72, kernel_size=(1, 1), stride=(1, 1))
        (conv_1): Conv2d(18, 18, kernel_size=(3, 3), stride=(1, 1), padding=(1, 1))
        (act): GELU(approximate='none')
        (conv_2): Conv2d(72, 36, kernel_size=(1, 1), stride=(1, 1))
      )
    )
  )
  (to_img): Sequential(
    (0): Conv2d(36, 48, kernel_size=(3, 3), stride=(1, 1), padding=(1, 1))
    (1): PixelShuffle(upscale_factor=4)
  )
)
2023-12-04 15:12:15,549 INFO: Use Exponential Moving Average with decay: 0.999
2023-12-04 15:12:15,559 INFO: Network [SMFANet] is created.
2023-12-04 15:12:15,579 INFO: Loss [L1Loss] is created.
2023-12-04 15:12:15,580 INFO: Loss [FFTLoss] is created.
2023-12-04 15:12:15,580 INFO: Model [SRModel] is created.
…
